GabrielUlacio-CoreAILibraries/1. PyTorch/temperature_model.pth (torch, 128229 bytes, 9 tensors)

lstm.weight_ih_l0 f4 [200, 1]
00000000: 181c d7bd 4c67 333e c547 7b3e 5773 3c3e
00000010: 8862 0e3e 71a1 303d bf43 8f3d c5f1 02bd
00000020: b495 643e 3363 843d 8dbe 7dbd b02d 1c3e
00000030: 28aa 203e 8a21 0aba 1cfd 743d 3147 803e
00000040: 1b29 053c a68d d43d 3acd 223e 0fdf d63d
00000050: dea2 7a3e 5fb2 0a3e 38b1 b23d 3aee c9bc
00000060: bbf0 163a f0ba abbc 2362 d23c 793d 463c
00000070: c7c0 443e f8c9 913d edef 873d b977 343d
00000080: f151 203e 317e 3e3e 4af8 bf3d 6fcb 4e3e
00000090: 62cf 623e deb5 273b c698 b1bd d507 9f3e
000000a0: 129e aebd fdd7 7ebd 698f bb3c e66c 03ba
000000b0: 4fc9 0fbe dba3 eabc 7740 553e 8759 3b3e
000000c0: 3405 2c3d 435f b53d 3bc0 aabd 7c91 e13b
000000d0: 0a4b 403e ec4d 783e 0889 01bc 51db aa3d
000000e0: c8b5 783d 4782 11be 627d 343e 3caa 99bd
000000f0: 782a 36be db74 303e 906b 053d 776c c83d
00000100: 46d6 2f3e 3b1b c03d c090 e5bd 2e96 d83c
00000110: 69bc 023e d19a 0bbd c961 eb3d 7528 a5bd
00000120: bccf 1b3e 0201 cf3d ba9c 09be f9a8 7bbd
00000130: 65e7 a7bd 7163 38bc 47ff 453e d1db d83d
00000140: 77e2 593e f987 593c dce9 b73d 8a54 3fbd
00000150: 03c3 b43d 5bbb 543e 78e9 9bbd c032 393d
00000160: 6346 79be 3b52 0e3e 3352 babd b271 063e
00000170: ab46 263d 3b63 d93d 3064 48bd 8e3a 36bd
00000180: d46d 773d d8c1 973d c539 8e3d 76e3 193c
00000190: f52b 613e 709d 03be b480 423e 8130 43be
000001a0: 578d 6f3e 1859 f7bc f320 2a3e 2942 0cbe
000001b0: b1c9 36be 7026 30be 7934 463e caff 123e
000001c0: f8e9 863e e335 163e 5afc 81be 306d 75be
000001d0: bc4e 13be 8b20 313e 008a 84be 48bb 3e3e
000001e0: 0539 033e 3b61 3abe a1be 0ebe 9832 593e
000001f0: 7dc8 193e 86c2 1fbe c2db d63d 6261 febd
00000200: 0094 433e f2a3 7e3d a630 2abe 2f3e 50be
00000210: 965c 603e e57c 1cbe 54b5 61be 3d7b 913e
00000220: 0da1 6d3e 2357 b5bc 042d 49be 7338 453e
00000230: 312d 14be e825 fe3c 5a6f ccbd 24ca 263e
00000240: 53b0 473d 9e83 58bd 5029 5abe ed95 183e
00000250: 7b5b c53d 06b3 e43d 7fa0 203d f7cf 933c
00000260: f2ac 6b3e 751e 603e 8379 623e 27ee 2d3e
00000270: 005d 9ebd 9eb8 443d 8873 6c3d c8ea 1fbe
00000280: 7e0a 0fbe 80a5 4e3d c1a8 673e 51d6 a53d
00000290: d613 893e 1cc6 813c 24c3 c13c 993f 1b3e
000002a0: c26a 0d3e c530 863d c6ed a33e b0f1 373e
000002b0: 7bde 8b3d aad3 88bd f259 dabd 80d3 473e
000002c0: c2e1 e6bd 9284 31bc c1d5 003e beed f53d
000002d0: 59e7 b0bc d563 223e e9e0 8b3e 101e 373e
000002e0: fa1d 35bd f923 823e 6532 773e 7c1e 8f3d
000002f0: 827a 2c3d 0177 a13e 5581 e3bc a813 bf3d
00000300: ab29 0a3e 1aa7 493d 0d26 eabd c085 1b3e
00000310: 3a8f 34bc a61f f13c debf c0bc f3c4 483d
-0.10503405 0.17519873 0.24539097 0.18403374 0.13904774 0.043122713 0.069953434 -0.03196885
0.22322732 0.06464233 -0.0619493 0.15251803 0.1568991 -0.000526928 0.059811696 0.25054315
0.008127476 0.1037858 0.158986 0.10491764 0.24476191 0.13544606 0.08725208 -0.024649728
0.00057579175 -0.020963162 0.02568156 0.012099617 0.19214164 0.071186006 0.06637559 0.04405949
0.15656258 0.18602826 0.09373529 0.20194791 0.22149423 0.002559058 -0.08671717 0.31060663
-0.08526243 -0.0622177 0.022895532 -0.00050134805 -0.14041637 -0.028642586 0.20825373 0.1829587
0.04199715 0.0885606 -0.08337446 0.006883798 0.18778625 0.24248475 -0.007906206 0.083426125
0.060720235 -0.14209853 0.17625955 -0.07503173 -0.17789638 0.17232077 0.032573283 0.09786313
0.17171583 0.09380194 -0.112092495 0.026438799 0.12767185 -0.03408319 0.114932604 -0.08064357
0.15215963 0.10107614 -0.13438693 -0.06144044 -0.08198432 -0.011254177 0.19335662 0.10588802
0.21277796 0.013277047 0.08980152 -0.046711482 0.08826258 0.20774595 -0.0761289 0.045214415
-0.24343257 0.13898556 -0.090977095 0.13129309 0.040594738 0.1061463 -0.04892367 -0.044489436
0.060407475 0.0741002 0.069446124 0.00939261 0.21989425 -0.12853026 0.18994409 -0.19061472
0.2339376 -0.03019385 0.16614132 -0.13697113 -0.17850377 -0.17202163 0.19355954 0.14355388
0.2635038 0.14668994 -0.2538784 -0.23967433 -0.14385504 0.1729757 -0.25886536 0.1862613
0.1281472 -0.18201153 -0.13939907 0.21210706 0.15017886 -0.15601549 0.10491134 -0.12420918
0.19099426 0.06216807 -0.1662012 -0.20336221 0.21910319 -0.15282018 -0.22041827 0.28414336
0.23205967 -0.022136277 -0.19646078 0.19259815 -0.14470364 0.031023934 -0.09982176 0.16288048
0.04875214 -0.052859895 -0.21304822 0.14900942 0.09636589 0.111669585 0.03921556 0.018043501
0.23015192 0.21886618 0.22116666 0.16985379 -0.07732582 0.048027627 0.057727367 -0.15616906
-0.13968846 0.0504508 0.22622968 0.08097518 0.26772946 0.015841536 0.02365262 0.1516098
0.13810256 0.06552271 0.32017344 0.1796329 0.06829544 -0.06680997 -0.10661687 0.19514275
-0.11273529 -0.01083483 0.1258154 0.12008236 -0.02159469 0.15858395 0.2732003 0.17882562
-0.04421804 0.2541807 0.24140318 0.06988236 0.04210902 0.31536105 -0.027771631 0.09329921
0.13492458 0.049231626 -0.11433039 0.1518774 -0.011020476 0.029434036 -0.02352899 0.04901595

lstm.weight_hh_l0 f4 [200, 50]
00000000: 4770 0ebe e054 533d 00c6 1cbe 43f9 613d
00000010: a83b e63c 2e8d a53d 81e8 193d 462d fbbd
00000020: 9915 963d 92a5 6dbd 13a6 f6bc 33b5 7cbd
00000030: 50a5 bcbd 2dc2 f5bd 06f7 e2bd 56e0 25bc
00000040: 7647 9c3d 0b46 56bd 5f5e 91bd d404 8e3d
00000050: e502 9ebd c21b 17bd f695 1a3e d974 21be
00000060: 93f3 adbd 8f0e ccbd 1430 aa3d fe36 0fbc
00000070: 36cd fabd 8f21 433d 2df3 5dbd f6d1 24bd
00000080: 6122 f93d 557e b3bd a81a ce3d d226 debd
00000090: 1100 993d 6c52 103e cc09 003c 370b ab3c
000000a0: 3be3 053e 22e2 c03d fa4f d33d 47fb 413b
000000b0: a999 8fbd 4b58 d93d 5d4e 0f3e 2ba4 113b
000000c0: 21b8 d6bd 75c8 343d 411c 3c3d 81c6 373c
000000d0: 4a72 593c 9cac 28bd 9692 1a3e 8261 0f3e
000000e0: ec74 70bc fbdf 7e3d 31cf 06be 2b06 5cbc
000000f0: 334b 803d 4d9b 973d c741 903d 6cf7 c8bd
00000100: 1569 13be e0e4 e6bd b1ce b7bc 6bee 793d
00000110: def1 a7ba 24c1 783d d281 4cbc dabd 90bd
00000120: bb48 33be a0fe c7bc 625c 60bd 7374 b83d
00000130: a9c7 dfbd 5021 0d3d bc7f 7c3c 5e5f f83d
00000140: e461 8fbd 8913 c2bd 8ef6 e43d 92fd 28bd
00000150: d5bc 7dbd dfdd 003d 3ca1 9e3d 6b9a 843d
00000160: c366 5ebd 4d2b f13b 0f97 b9bc b93f 97bd
00000170: dbc4 a03c b3ce 05bd d2a7 c03d 4ceb d93b
00000180: 3daa 0cbd dc5a d2bc 615e 093e 7da7 ff3d
00000190: a3fc c1bd 647e 30bd 3a6c e03c a5ba 703d
000001a0: 259e 9bbd bd46 043d 7ce9 9dbc adc8 1ebd
000001b0: 6ebd 443d 4e66 53bc 6dd4 a73b 3d4f 933d
000001c0: 6c82 133e 9d33 c73d 0636 69bc e6f6 7abd
000001d0: 9413 d03a 764a 81bc e2cb eabd 6bab 093e
000001e0: 6b6e ddbc 058e 983d 944c 36be 0a1b 173d
000001f0: d310 03be 2350 cb3d 435b 763d 0bb9 133d
00000200: 9921 193e 4114 0a3e dfb1 debc e89e 9cbd
00000210: e10d 8bbd fd41 6d3d b303 8cbd c10d a43d
00000220: 26c0 b6bc cccd 6bbd 6a77 bf3d 40d5 91bd
00000230: 2df2 babd 883a bd3c 8ab1 043e 2fde 03bc
00000240: 60eb 043d 903a 24bc 1fa3 0cbe 71ef 9a3d
00000250: 1699 ab3d 4a2c 123e 17e0 11be 3d1f 67bd
00000260: e062 133e 4f1e b5bd ffa5 823c 736e 24bd
00000270: ff4a 0dbe 0ec1 a13d 5cd7 d53d 13ba d63d
00000280: 9a56 733b 6ede 02be 7bc5 1c3e 9786 f83d
00000290: c01a da3c 185d 5d3c f231 053e c70f c3bd
000002a0: 92e8 bbbc 329b 0c3e b431 053d 75a2 2dbc
000002b0: 481b 8fbd 58f3 13bb b099 903a 8f09 cc3d
000002c0: 3d4c e9bd 1d75 153e 2c27 d4bd 8aff 053c
000002d0: 1c2d db3d 52d8 a33c 5762 50bd 09af 6f3d
000002e0: d888 0cbc 1269 41bd 5631 9a3d 877f e8bc
000002f0: b261 32bd 5337 b13c f764 24bd 8daa 85bd
00000300: 0d52 8bbd c240 04be 3802 23bd f86a dd3c
00000310: 494a c2bd 25e6 0d3e f92b 693d 213a c23d
00000320: dc38 9bbc 4814 50bd 3183 9e3c d162 223c
00000330: ecfa 1c3e f3a3 123d b156 0d3e 7162 bf3d
00000340: 8cb5 073d 40db 593c c793 73bd 0e82 ecbd
00000350: 9b6c d3bc c50c 993d 5709 7a3d 98d6 fbbd
00000360: 9d8d ecbc 0e48 29bd e713 a13d 7453 283e
00000370: d616 d7bc 18dd 8fbd ee12 19be d315 bcbd
00000380: 016c 443d 85ea b2bc a414 d6bd 3eb4 46bb
00000390: 32be 3fbd 1379 e3bd cd3d a0bc 514f 28be
000003a0: 03f0 003e c168 1e3d 1ae7 ae3d d56d ef3d
000003b0: 20ba e63c 62a8 b93b c8b9 8e3d df7e 463d
000003c0: 240b a4ba 6092 96bc 2e2b 403d 25e2 7d3d
000003d0: 795a 85bd 92bd a8bd a2e1 803d b716 0a3d
000003e0: f2c7 173b ab61 9bbd 11a7 0dbd a805 c93b
000003f0: 22e9 f53c 03e4 dcbd eb53 fcbb 92ad 0abd
-0.13910018 0.051594615 -0.15309906 0.055169355 0.028104618 0.080835685 0.03757525 -0.122644946
0.07328338 -0.05801923 -0.030108487 -0.061696243 -0.09211218 -0.11999927 -0.11082272 -0.010124287
0.076308176 -0.052312892 -0.07098078 0.06934515 -0.07715396 -0.036891706 0.15096268 -0.1576723
-0.08493724 -0.09963714 0.083099514 -0.0087411385 -0.12246172 0.047639426 -0.05418699 -0.040239297
0.121647604 -0.0876433 0.10063678 -0.10847248 0.07470716 0.14093941 0.007814836 0.020879371
0.13074963 0.094181314 0.10317989 0.0029599236 -0.0701173 0.10612544 0.13994737 0.0022223096
-0.104843386 0.044136483 0.045925383 0.011216761 0.013271878 -0.041180238 0.1509498 0.1400204
-0.014676314 0.062225323 -0.13164975 -0.013429205 0.06264343 0.07402668 0.07043796 -0.09812817
-0.14395554 -0.11274123 -0.022437425 0.06101839 -0.0012813171 0.06073107 -0.012482123 -0.07067461
-0.17508213 -0.024413407 -0.054775603 0.09006586 -0.10926754 0.034455597 0.015411314 0.12127565
-0.07001093 -0.09476382 0.11179839 -0.04125745 -0.061947662 0.031461593 0.07745597 0.064747654
-0.05429722 0.007359898 -0.022655038 -0.07385201 0.019625118 -0.032667827 0.09407009 0.006650364
-0.03434204 -0.02567809 0.13414909 0.12483118 -0.09472015 -0.043089285 0.027395356 0.058771748
-0.07598523 0.032294024 -0.019276373 -0.038765598 0.048032217 -0.012902809 0.0051217587 0.07192848
0.14405221 0.09726641 -0.014234072 -0.061270617 0.0015874975 -0.015782576 -0.11464669 0.13444297
-0.02703019 0.07448963 -0.1780265 0.03689102 -0.12799387 0.09927394 0.060145628 0.036065143
0.14954223 0.13484289 -0.027184425 -0.076474965 -0.067897566 0.05792426 -0.06836643 0.08010436
-0.02230842 -0.05756931 0.09348948 -0.07120752 -0.091282226 0.023099199 0.12958351 -0.008048578
0.032451034 -0.010023728 -0.13734101 0.07565201 0.08378808 0.14274707 -0.1424564 -0.056426276
0.14393187 -0.088436715 0.015948294 -0.040144395 -0.1379814 0.078981504 0.10441467 0.104847096
0.0037130476 -0.12780163 0.15309708 0.12135046 0.026624084 0.013510965 0.13007334 -0.09524494
-0.022938047 0.13731077 0.032518104 -0.010597815 -0.06987625 -0.0022575464 0.001103213 0.09962761
-0.113914944 0.14595456 -0.10359034 0.008178601 0.10701963 0.02000061 -0.050875034 0.058516536
-0.008577548 -0.047219343 0.07528941 -0.028381122 -0.0435502 0.021632826 -0.04013535 -0.065266706
-0.06802759 -0.12915328 -0.039797038 0.027028546 -0.09486825 0.13857324 0.0569267 0.094837435
-0.018948011 -0.05080059 0.019349666 0.009911255 0.15330094 0.035800885 0.13802601 0.09344948
0.03313212 0.013296902 -0.059467103 -0.115482435 -0.025808623 0.07473139 0.061044063 -0.1229679
-0.02887612 -0.041328482 0.07865124 0.16438085 -0.026256006 -0.07024592 -0.14948627 -0.0918385
0.047954563 -0.021840343 -0.10453156 -0.0030319835 -0.046812244 -0.111070774 -0.019560719 -0.16436507
0.12591557 0.03867412 0.08540173 0.11690871 0.028164923 0.0056658247 0.06969029 0.048460837
-0.0012515527 -0.018380344 0.04691618 0.061983246 -0.06511397 -0.08239283 0.06293036 0.03371307
0.0023159948 -0.07586988 -0.034583155 0.0061347075 0.030018393 -0.10785677 -0.0077004335 -0.033856936

lstm.bias_ih_l0 f4 [200]
00000000: 8f1b d3bc 228c 123e 0085 dc3c 38cd a03c
00000010: 5d3e e13d 89b1 a93d ac27 1e3d 3771 a5bd
00000020: 14ca 43bd be28 acbb c821 253e dc66 8b3d
00000030: 34bc 953d 87a4 d2bd 3a1c 4abd cd7f aa3d
00000040: c23c c3bd b224 013e 325e 333e d2b9 de3d
00000050: ffcf e93c 86f6 d8bd 68cd 0c3e 7bb5 483d
00000060: fd61 c9bd a79b ebbc 4a4b d73d e998 e5bd
00000070: a681 33bc 6be2 cb3d 9027 f73d 5986 983d
00000080: 59b9 a03d d635 2d3b 1f21 b73d dd38 d93d
00000090: 9195 6e3d 82d0 95bd 7c77 293e 0223 c63d
000000a0: 4609 f5bd 68e6 d73d 1e56 133e d09f 0f3e
000000b0: ead4 55bd 8aca 49bd 71ac e2bc 659f 6d3d
000000c0: e8d6 ce3d 479b 09bd 8391 31be b1fd 843d
000000d0: 9a73 373d 8020 d1bd ff2d d4bd 70b5 57bd
000000e0: 4619 02bd 55c9 c0bd d6c7 f3bd 0e4a 603d
000000f0: 8d6c 53be e436 59bd b56a c4bd 7ff1 953d
00000100: b0b2 653d b00c de3d 4c81 21bd 4673 0ebe
00000110: 567a e43d ca2f e63d 0309 783d d896 11be
00000120: 608e 363d 2a6d 133e a867 05be aef7 fa3c
00000130: 19d8 393d 2962 1cbe f0b5 d8bc 9236 b73d
00000140: 05ca 6c3b bcdd e3bd 8dc7 a1bd cf54 e63d
00000150: b19a ecbd 7f07 833d 0bd2 eabd 8a49 19be
00000160: 3c2e 4fbb 526a d2bd 1261 8fbd 6fe9 5ebd
00000170: b835 b0bd fd5b 943d a575 3cbd 311b 7bbd
00000180: 631c c83b dc10 e3bd 2bee c43d ccae 76bd
00000190: 2896 b9bd 1d0f 0a3e 59b1 2fbd c690 c9bd
000001a0: 1d2c 53bd b7f8 8d3d f522 82bd a64a 3c3d
000001b0: 92da 86bd 488e d13d 3107 80bd 9a41 bdbb
000001c0: b08d cabd ab24 aabd ac80 5cbd 7c35 96bd
000001d0: 0fec 95bd 74ef 123d e5b3 f2bd 4b1a c3bd
000001e0: 3d21 613d 2f41 a5bc bc2e 6f3d 98cb de3a
000001f0: 239d 5abc 0376 78bd 2e3a c0bd ee41 d33c
00000200: b680 a7bd c048 cb3d 8d03 bfbd d0dc 9bb7
00000210: 9990 c83d 4710 7b3d d56d bc3c facc a83c
00000220: 2b43 9bbc e414 76bd 5a38 cfba e4c7 b4bd
00000230: 82bb 693d 6815 f2bd cf6e 69bd e986 a6bd
00000240: c055 c63d 7ef2 dabd 11b1 143c 18fa 603d
00000250: 6ce6 cfbd 52ba 883d 402c 8ebd 0cbb ea3d
00000260: f40f e5bd a7c6 ec3d ec76 5b3d 4b48 84bc
00000270: 9ff6 4e3e fd2a 6b3d ed77 ab3d 40a3 67bd
00000280: 0e9b be3d 7a3f e93d 11cd 323d 54cf 963d
00000290: d661 aabb 2f63 b0bd b0a5 da3d a9b0 1cbd
000002a0: 0e09 f3bc 4a21 1ab9 ba3d b7bd 7c8e 9cbd
000002b0: 81ea 99bd 95b4 e2b9 aa3f bf3d 5861 ff3d
000002c0: 988b 2ebd 38c6 98bb c6a9 9a3d 6423 d4bc
000002d0: 6085 f1bd aff9 36bb b7d1 bbbc f580 703c
000002e0: 3e1d ccbb 1eb9 9a3d 4101 06bd ea94 0abe
000002f0: bc04 da3d ba73 3e3e ee9c 02bc 4930 1a3b
00000300: e9ed ae3d b509 66bd 62ec ddbd 5984 c3bd
00000310: 69ae 61bc e962 c3bd 17fa da3d cf1f 15be
-0.025769977 0.14311269 0.026918888 0.019629106 0.10998223 0.08285815 0.038612053 -0.08078235
-0.04780014 -0.0052538803 0.16126168 0.06806728 0.073112875 -0.10285287 -0.049343325 0.08325157
-0.09533073 0.12611654 0.17516401 0.10875286 0.028541563 -0.105938956 0.13750231 0.0490012
-0.09833143 -0.028760744 0.10512407 -0.11210806 -0.010956204 0.09955295 0.12068093 0.074475
0.07847852 0.0026429794 0.08941864 0.10606549 0.058248106 -0.0731516 0.16549486 0.09674646
-0.119646594 0.105419934 0.1438832 0.14025807 -0.052205004 -0.049265422 -0.027670117 0.05801334
0.10099584 -0.03359535 -0.17340665 0.064937 0.04478798 -0.10211277 -0.103603356 -0.052663267
-0.031762384 -0.09413401 -0.1190335 0.054758124 -0.20646878 -0.053030863 -0.09590665 0.07321452
0.056078613 0.10842264 -0.039429948 -0.13911161 0.11156146 0.11239584 0.06055547 -0.14217699
0.044569373 0.14397112 -0.13027823 0.030635681 0.045372102 -0.1527182 -0.026453942 0.08945955
0.0036131155 -0.11126277 -0.078993894 0.11246645 -0.115529425 0.06397914 -0.11465844 -0.14969459
-0.0031613251 -0.10274185 -0.070009366 -0.05442184 -0.08603996 0.07244108 -0.046010632 -0.06130523
0.0061068996 -0.110872 0.096157394 -0.060225293 -0.09061843 0.13482328 -0.04289374 -0.098420665
-0.05155574 0.06932204 -0.06354324 0.045969628 -0.06584658 0.10232216 -0.06251372 -0.0057756426
-0.09890306 -0.08307775 -0.05383365 -0.0733442 -0.07320415 0.03587289 -0.118507184 -0.09526499
0.05496334 -0.020172684 0.05839418 0.0016997932 -0.013343128 -0.06065942 -0.09386097 0.025788274
-0.081788465 0.09925985 -0.09326849 -1.8580264e-05 0.09793205 0.06129482 0.02300159 0.020605553
-0.018952927 -0.060078517 -0.0015809641 -0.088271886 0.057063587 -0.11820489 -0.05699044 -0.08131201
0.09684324 -0.10690783 0.009075419 0.054926008 -0.10151371 0.06676163 -0.06942034 0.114614576
-0.111846834 0.115613274 0.05358021 -0.016147753 0.20211266 0.057414044 0.083724834 -0.05655217
0.09306918 0.1138906 0.043652598 0.073637635 -0.0051996512 -0.08612668 0.10676134 -0.038254414
-0.029667404 -0.00014698986 -0.0894732 -0.07644364 -0.07515431 -0.00043240623 0.09338315 0.12469739
-0.042613596 -0.0046623014 0.07551913 -0.025895782 -0.117930174 -0.002791982 -0.022927148 0.014679183
-0.006229072 0.075548396 -0.03271604 -0.13533369 0.10645434 0.18598834 -0.007971985 0.0023527315
0.085414715 -0.0561616 -0.10836102 -0.09546728 -0.013774493 -0.0954035 0.10692232 -0.14562915

lstm.bias_hh_l0 f4 [200]
00000000: 6d42 67b9 d01a 103e 2fdd 8b3d ff2d 49bc
00000010: 08a4 ca3a 222b ee3d 1085 f7bc b916 843d
00000020: f2c2 6c3d cc9d 92ba 57be 883e 8f29 e23c
00000030: 1c2d e83d c96b 09be be6d d8bd 91ea e6bd
00000040: a4b9 01be cb97 513d d809 0c3e 76b6 d5bd
00000050: ffd2 3bbd 145f cf3d 528a edbb d978 44bd
00000060: a715 f7bc 883b db3d 56e2 06be f4cc b5bd
00000070: a7e7 06bd 8ed4 a63d f71a 013e c24e d9bc
00000080: 51f1 e7bc 5c7b 47bd bb7e c13d 5a18 483d
00000090: 7adf 2a3e 52d6 a6bc b831 c23d 1390 8a3e
000000a0: 7e19 ffbd 0b27 6d3d 0bd3 ea3c 7afb 9ebc
000000b0: 1004 bd3d 3ffb 1b3c 67db 2c3e 8120 2bbd
000000c0: 47d6 0a3e 4b79 6cbd ec3e cebd 01a3 e63d
000000d0: 8d34 debc 0f49 0dbe fffb 843d bd32 013e
000000e0: d5dc cb3c 1df0 c83c b019 f9bd a862 d53d
000000f0: c96a 35be ffe2 1dbe 9bce 4bbd e1bb b23d
00000100: 0857 fdbd 992d 643d 0731 a23c 7da5 e43d
00000110: ec1e 6bbd 9476 dc3d 6eb6 553d 9999 b2bd
00000120: efb7 d8bc c0d9 19bd d589 c13c 03a6 cc3d
00000130: 9b9b f83d 08b2 3fbd b9bb 08bd b846 fdbd
00000140: ce41 173d 4b15 273d bce2 f1bc f086 863c
00000150: c189 c3bd f00a f43d 3e0d 0abe 68e9 933d
00000160: da75 adbd 8f0e 043d 891c c3bd 5e9c bc3d
00000170: 6caf 40bd e585 1cbd 8e55 943d cea5 48bd
00000180: 1c1c 7b3d 3ab0 d8bd 54c5 16be 7322 b93d
00000190: 5819 52bc cf4d c2bd 4d3f da3d 78dd ba3b
000001a0: a25f 853d 43ed c43d 605a b63d 18e3 b03d
000001b0: 5df7 7dbc b9e5 7e3d 9348 b7bc 9db8 18bd
000001c0: 2277 ff3c 23b6 d1bd 6ce4 a13a 3ea0 b1bd
000001d0: 527c 673c f0c3 9abd 0c71 a83d 7120 803d
000001e0: e44e b43d 3b09 723d 24dd c6bd 0d3d f5bd
000001f0: 9f0d 02bc 2dd1 adbd f319 2b3d bf06 a93d
00000200: 7e7a f13c a974 133d 1791 77bd 252a abbd
00000210: 17fa 5a3c 5fe4 92bc 1c36 543d 4161 213d
00000220: 925e 703c 100d 3d3d 38a3 54bd bc62 f03d
00000230: f757 da3d b58f 993c d8f8 a1bb 43ef a33d
00000240: db19 05be 2869 4e3d d233 6c3d acc4 683d
00000250: 16b3 f43d 04c0 9d3d f491 b4bc 64d1 6cbd
00000260: fc8b d7bd 7c7e 133e 8ac4 283e 6d62 6bbb
00000270: 19bd 273e 8660 a4bc bc53 c1bc 664c edbd
00000280: 9d87 253e 2077 2a3d 9bd8 813d cfe4 8ebc
00000290: c3c2 0d3d 491a fabd 5056 a5bd 1ded 3a3d
000002a0: c036 9dbc 6c41 cf3c f49e b4bd 0640 d2bd
000002b0: cd13 ccbd f2f4 88bd ccb0 b2bc 09f4 1d3d
000002c0: 6840 943d 9493 fc3d e2a6 b7b9 82bd 653d
000002d0: 923f b73b efb5 983a c989 263e d2e8 bb3d
000002e0: 8a8c c6bb 6015 c33d 6ef8 4a3e 5b70 5ebc
000002f0: 66af 773e 4607 4f3e f814 c43d b3a1 523d
00000300: cc4d 6b3d 87a4 a83d 71dc 68bd 25f1 913d
00000310: 0910 4fbd 4743 8dbd 08d4 0bbd 5e7f 07be
-0.00022054622 0.14072728 0.06829297 -0.012279033 0.0015460262 0.11629321 -0.030214816 0.064496465
0.0578031 -0.0011185943 0.26707718 0.027607707 0.11336729 -0.13420023 -0.10567807 -0.11275209
-0.12668473 0.05117015 0.1367563 -0.10435192 -0.04585552 0.101255566 -0.007249155 -0.04796681
-0.030161692 0.10704714 -0.13172278 -0.08876982 -0.032935765 0.0814601 0.12607943 -0.026526812
-0.02831331 -0.04870163 0.09448 0.04885135 0.16686812 -0.020365868 0.09482139 0.27063045
-0.12456034 0.057898562 0.028665086 -0.019407023 0.092292905 0.009520351 0.1688057 -0.041779045
0.13558303 -0.05773286 -0.10070595 0.11261559 -0.027124668 -0.13797401 0.06493377 0.12617011
0.024885574 0.024528557 -0.121631026 0.10419208 -0.17716517 -0.15418623 -0.04975758 0.08727241
-0.123701155 0.055707548 0.019798769 0.11164377 -0.057402536 0.107648045 0.05217593 -0.08720703
-0.026454894 -0.03756118 0.023625294 0.09992602 0.121390544 -0.046800643 -0.03338215 -0.12367004
0.03692799 0.04079179 -0.02952706 0.016421765 -0.09547759 0.11916149 -0.13481614 0.07222253
-0.08469744 0.032240447 -0.09526927 0.09209512 -0.047042295 -0.03821363 0.07242881 -0.04898625
0.061306104 -0.105804875 -0.14723712 0.09039774 -0.012823425 -0.09487497 0.10656605 0.0057026707
0.06512381 0.096155666 0.089039564 0.08637065 -0.0155008705 0.0622308 -0.022373473 -0.037285436
0.031184737 -0.10239818 0.00123514 -0.08673142 0.014128761 -0.07556903 0.08224687 0.06256188
0.0880411 0.059090834 -0.09710148 -0.11974535 -0.007937818 -0.08487163 0.041772794 0.0825324
0.029477354 0.035999928 -0.060441103 -0.08357648 0.01336529 -0.017931161 0.051809415 0.03939939
0.014670985 0.046155035 -0.05191347 0.11737582 0.10661309 0.018745283 -0.0049429946 0.0800462
-0.12998144 0.050393254 0.057666607 0.056828186 0.119482204 0.0770264 -0.022042252 -0.057816878
-0.10524747 0.14403719 0.16481224 -0.003591682 0.16380729 -0.020065557 -0.023599498 -0.115868375
0.16165014 0.041617513 0.06340142 -0.017443089 0.034609567 -0.12212045 -0.080731034 0.045636285
-0.019191146 0.02529975 -0.088193804 -0.10266118 -0.09964714 -0.066873446 -0.021812819 0.03856281
0.07238847 0.12332836 -0.00035028817 0.05608893 0.005592295 0.00116509 0.16263498 0.09175266
-0.006059234 0.09525561 0.19821331 -0.013576592 0.24188003 0.20217618 0.09574312 0.05142374
0.05744724 0.08234506 -0.056850854 0.07126073 -0.0505524 -0.06897598 -0.034137756 -0.1323218

lstm.weight_ih_l1 f4 [200, 50]
00000000: fe0b 583d 427f 8cbe ab56 da3e 4b61 c4be
00000010: 3659 ec3e d1b4 b33e e568 df3e d9db b83c
00000020: 439b 01bf 6d95 cabe f09a 083f b77e c03e
00000030: d831 fc3e db20 11be d5fc c1be 9be2 a6be
00000040: 4370 d0be cef9 bb3e 7b97 9bbe 046c 043f
00000050: 8320 823e 48c6 c0be af2c a3be 5776 d33e
00000060: 2853 f13d 158e 00be 1aed 813e 6bcf 29be
00000070: c8ac c93e 2a72 c53e f317 9ebe 2a3f 91be
00000080: 43d1 a53e 71b1 16bf 6f0a fcbe 64d8 023f
00000090: 7b21 193f a603 b2be 0381 a9be 3bf9 f23e
000000a0: d1cc b23d 04b4 6cbe a98a 7abe 4af3 933e
000000b0: fb4a 883e c5f9 1ebe 2866 f8be f452 ea3d
000000c0: 6519 bf3e 30e9 593e 24bb f33d 9f83 a83d
000000d0: a813 f33d 788b 5d3c a9b8 2a3d fab5 e53d
000000e0: 2ac5 bebc eb6a 903c 49b9 9fbc 0b74 e93c
000000f0: a9af ce3c 42c9 223e 55f2 443e b6db 05be
00000100: deee f6bd 779c 9e3d bd90 5bbc ebbb 833d
00000110: c3e4 41be caf0 67bd 19a6 213e 9b12 59be
00000120: 082f d8bd 5c9d 943b 124e 1b3e 954c 8c3b
00000130: 5bae 993d 640d a1bc ef00 b13d dacc 77bd
00000140: 8542 18bd 2bd3 0bbe 0558 b43c ddae 373d
00000150: dbf7 dabd 85be 373c 53e1 0b3e c849 bcbd
00000160: 710d ac3d 2c16 3a3d 316c 6dbd 7d29 4dbd
00000170: 2cc4 9f3d 8d9b 7bbc de2d dcbd e905 de3d
00000180: c8ce aabd 9a7e b43d cf63 b4bd b347 e4bc
00000190: 8c7e 47b9 84a6 15bd 151e 0c3e 2fae 96bd
000001a0: 8b18 fa3d 4f2d 673e 3bda 833d 7aae 0b3e
000001b0: e637 34bd f20c 3d3d 7540 d7bc d1fc fc3d
000001c0: d376 dd3d 52a8 9ebd b6ca 14be 3d82 d6bc
000001d0: 3fa1 853d 9085 1f3e b891 c0bd b455 393e
000001e0: 20c2 563d b2c9 15be d9db 11be 7879 b7bd
000001f0: 2650 67bd cc40 8c3d c25f b53d d171 0a3e
00000200: 6dc0 203d 57cd 233d c5f3 01bc 4d4a bbbd
00000210: ca37 343e 96a8 b03d 39b5 04be f96a 083e
00000220: 2313 053e c7f6 76bd 1c79 f2bc 4cd6 e23d
00000230: ee67 453e 7df4 a7bd 46e6 cebd df93 683e
00000240: 431c 1f3e 6331 6fbd 9986 a2bd 7709 973d
00000250: 6b70 b73d af40 e33b e5c8 0c3e f45c 673d
00000260: 4afd f23d a550 d23d e961 b7bd 9695 0b3e
00000270: 69d6 2c3e 192b 1e3d 5f28 2fbc a4d7 29be
00000280: 8301 343b c987 b83d 24fc e93d 88b7 cbba
00000290: 9c17 b4bd 8fef 83bd 5f9f 8b3d 3da8 043e
000002a0: 1eea fabd 666a a4bd 22d0 0dbd 7168 16be
000002b0: fb6e 3d3c 315b be3d 79a6 74bc ba87 8e3d
000002c0: 4c94 e9bd 99fd d7bd fbc6 d5bb 98e7 f7bc
000002d0: c3f3 f9bd 576d bcbd 2fdd 2f3d 1a09 a73d
000002e0: 6d87 fabc 0922 fb3d 72f0 313d 4510 a73d
000002f0: 6409 103c 3102 bc3d 2247 abbd 562d 693d
00000300: 25d8 82bd d7ff 9e3d 9dae 48bd dae9 c93d
00000310: 61d8 153d 9dc0 843d 740b aebd 05cd c4bc
00000320: c0d8 97bd d3b1 92bd 1049 4b3c e925 c6bc
00000330: 71d4 813d 7fcd f0bd dcf0 81bd ed04 6bbd
00000340: 7c44 e53a 13b2 fb3d 6740 8d3c 31df 79bd
00000350: 9c85 db3d ce7a b83d 5816 88bd ff8e e6bc
00000360: 3aae 66bd b65e e5bd 46ba e2bd f7e7 d03c
00000370: 95bb 813d c14a 123e a362 dcbd 7ee8 3bbc
00000380: 82e7 b7bd 4d38 583d 6fad c4bd adc9 b43d
00000390: 0add f43d 15b9 de3d d4ce 4d3d 19f6 a0bd
000003a0: 9d59 9fbc 5059 e93d 8b7c ffbd f50a b9bc
000003b0: 4fb2 a4bd 0620 d33d 31da 0a3e c1c5 d03d
000003c0: 2c46 97bd 1271 583d ee84 16bd 789f fa3d
000003d0: 9f1e fdbd 5900 69b9 f27c 733c 5537 cd3d
000003e0: e4a5 c8bd 1280 07be 602d 033e 7f7f 013d
000003f0: 56bc 9cbd 01c4 1c3d 99d5 5c3d 0154 cb3d
0.05274581 -0.2744084 0.42644247 -0.3835548 0.46161813 0.3509889 0.43634716 0.022565769
-0.50627536 -0.39567128 0.53361416 0.37596676 0.49256778 -0.1417269 -0.37888208 -0.3259476
-0.4071065 0.36714023 -0.30389008 0.5172732 0.2541543 -0.37651277 -0.31870028 0.41301224
0.11783439 -0.125542 0.25376207 -0.1658303 0.39389634 0.38563663 -0.30877647 -0.28368503
0.32386217 -0.58864504 -0.4922671 0.51111436 0.5981671 -0.3476841 -0.3310624 0.47455773
0.08730472 -0.23115546 -0.24466957 0.28896552 0.26619706 -0.15524967 -0.4851544 0.11441603
0.37324062 0.2128036 0.119009286 0.0822823 0.118689835 0.0135220215 0.041680012 0.1121635
-0.023287375 0.017629107 -0.01949753 0.028497716 0.025230246 0.15897086 0.19233067 -0.13072094
-0.12057279 0.07744687 -0.0134012075 0.06432327 -0.18934922 -0.05662612 0.15786017 -0.21198504
-0.105558455 0.0045353603 0.151665 0.00428159 0.07503959 -0.019659705 0.08642756 -0.060498096
-0.037172813 -0.13654773 0.022014627 0.044844497 -0.10691806 0.011214857 0.13660173 -0.0919376
0.08401001 0.0454313 -0.057964507 -0.050088394 0.07801089 -0.01535691 -0.10750936 0.10840971
-0.08340222 0.0881321 -0.088080995 -0.02786622 -0.00019025261 -0.036535755 0.1368335 -0.07357442
0.122117124 0.22575878 0.064381085 0.13640776 -0.04399862 0.046154924 -0.026275853 0.123529084
0.108136795 -0.07746948 -0.14530453 -0.02618515 0.06524896 0.15578294 -0.09402794 0.180991
0.052431226 -0.14627722 -0.14244021 -0.08958715 -0.05647292 0.068482965 0.08856155 0.1351998
0.03924601 0.03999075 -0.007931654 -0.09145031 0.17599407 0.08625905 -0.12959756 0.13322057
0.12995581 -0.06029394 -0.029598765 0.1107603 0.19277927 -0.08200929 -0.10102515 0.22712658
0.15538125 -0.05839671 -0.07935829 0.07374852 0.08956989 0.006935201 0.1374851 0.05648513
0.11864717 0.10269288 -0.08954222 0.13631281 0.16878666 0.03861532 -0.010690778 -0.16586167
0.0027466721 0.09010274 0.11425045 -0.0015542367 -0.08793566 -0.064421766 0.06817507 0.12954803
-0.122516856 -0.080281064 -0.03462232 -0.14688279 0.011562104 0.09294737 -0.014932268 0.069594815
-0.114052385 -0.10546417 -0.0065239645 -0.0302618 -0.12204697 -0.092005424 0.042935546 0.08156033
-0.030582154 0.12262351 0.043442197 0.081574 0.008791301 0.091801055 -0.08363177 0.056928
-0.063888825 0.07763641 -0.04899465 0.09859057 0.036583308 0.064820506 -0.08498278 -0.024023542
-0.07414389 -0.071628235 0.012407556 -0.024187999 0.06339348 -0.11757945 -0.063447684 -0.057377744
0.0017491723 0.12289824 0.017242623 -0.061003868 0.10718843 0.09007798 -0.06644887 -0.028144358
-0.0563185 -0.11199705 -0.11070685 0.025501234 0.063346066 0.14286329 -0.10761001 -0.011469005
-0.089797035 0.052788068 -0.09603392 0.08827529 0.11956222 0.10875145 0.050246075 -0.078594394
-0.01945191 0.11393988 -0.124749266 -0.022588233 -0.08041822 0.10308842 0.13559796 0.101939686
-0.07386431 0.052842207 -0.036747865 0.122374475 -0.12359356 -0.00022220741 0.014861332 0.10020319
-0.09797266 -0.13232449 0.12810278 0.03161573 -0.0765311 0.03827286 0.05391464 0.09928132

lstm.weight_hh_l1 f4 [200, 50]
00000000: f3dc 2f3e ea2c 7dbe cc97 61bd 00ee 843e
00000010: 6e83 50bd 1011 403e c1f1 133b 2a2e 9b3e
00000020: e718 313d d207 b53e 9a78 62be 189b c3bc
00000030: 43e3 3dbe f609 1d3e f9f1 d93c e5fb b03e
00000040: 15f9 0e3e 79ca 533e 4dfd 8dbe bc5c 8dbe
00000050: e938 9fbe 8a9a c33d 3268 59be 218d 763e
00000060: 946b 8e3e e2e3 afbe 17d5 803e c998 f6bd
00000070: a383 6d3e d03a 4dbe d72c 0b3e 5309 a5be
00000080: 78e6 c5bd 6de9 373e e6e0 04bc 0c1f 8a3e
00000090: 774c 613d 1ead 3f3e c03b 87be 5a40 9dbe
000000a0: 17c1 4ebe b10b 803e 85c8 22bc df70 d63d
000000b0: ba66 05be b2c1 86be 08e3 253e afdf 18be
000000c0: 8aa6 833e 0d4f a6be 6e11 54be b890 b53d
000000d0: 9952 903d 5a9d 6d3d f21d 17be 615f 07bd
000000e0: 097f 81bd af06 683d 69e8 8d3d dab2 d0bd
000000f0: 3894 f5bd b851 bfbd 0fda 8e3c c6eb 0f3e
00000100: a21d 23bd d79e 10bd 4680 a73c fd8e d4bd
00000110: 0703 1dbc 5263 863d 7402 6a3d deda 213c
00000120: 7dc3 0bbe 7e75 d2bc 3810 c23d bbde 0bbe
00000130: ed1f 003d 2f6f b73c ee90 0c3e e48c 9fbd
00000140: 96d2 b5bd 4140 173d f74f a6bd 0967 d8bd
00000150: ec5b fcbd 7382 02be 1345 7dbd 91ce 3fbd
00000160: 4f62 f7bc 2ef6 993d 96e2 a23d f745 1cbd
00000170: 3e7a ebbd b5ed 923d d5b8 a2bd 4195 a63d
00000180: d47c 9d3d 21c8 f83d a0bd 0ebe 0140 85bd
00000190: f3ef 9f3d 1929 c7bc 10f9 e53d 311c d53c
000001a0: 77ec e83d c0f9 f83d 5b2b 92ba 66f9 cb3d
000001b0: e9cf 8cbd 0a0c fb3d e04e 6bbc f715 393d
000001c0: 0a19 c23c a587 733e 7ae4 07be 5b56 b03d
000001d0: b8ac 22bd 947f bf3b 4f1b 893c c004 8fbd
000001e0: 1530 edbc 6c8f 98bd 3ccb f9bd 8116 ab3d
000001f0: a23c 3c3d e153 6e3c 026c 0f3e c04b 8ebd
00000200: 8c57 cc3b 5cfb 6f3e 7bdc 8abd 44e0 8d3d
00000210: d594 8a3d c20d 77bd 97d3 a5be da46 a13d
00000220: 5047 c53d 68ec 163d 9bff b1bc f5d5 55be
00000230: 4c9a 1fbe 9e80 99bd aabf c03d fc9d 043e
00000240: 5f15 bbbd 8802 a33c d641 773e ba9a dfbd
00000250: 1f11 61bd 660c 2fbe 4a98 80bd fc3e 94bd
00000260: c07b 303e 91d8 a03c ff34 053e 6ebf 5fbd
00000270: 38b5 e63d 90f2 bc3c 2996 9b3a ba7d d93d
00000280: d99c 13bd c0b6 08be dd5f 243e 6a1f a53d
00000290: 1209 e53d 3143 a5bd 01c7 00be 64f4 e53d
000002a0: 01ce a93d d0ce 073c 0d41 383e 5d18 44bd
000002b0: b2c3 c3bd 860b bd3d 20d4 833c 8403 c1bc
000002c0: dac2 6cbd 50d0 573b bf33 8c3d a746 673e
000002d0: 2ff3 c8bc 15e7 ccbd 8028 edbd 31e7 43bd
000002e0: 521a 77be 1f8a 8cbd 0bf0 00be 3bcb 673d
000002f0: 4ad3 dabd bd39 25bd 2546 6fbd 5c46 edbd
00000300: 10af bcbc 3927 c83d 564c 21bd 7123 96bd
00000310: 9e06 e63c f033 1b3d 21bf 5d3d f207 083e
00000320: 3586 1ebb 970c 313d ed76 46bd 587d dabd
00000330: b4e5 df3d 2939 733d a596 f4bd bf69 6a3d
00000340: ef6e 92bc d386 013e 567e 133d 063b d93d
00000350: eec8 ce3d 0831 f3bd 523d 51bc 4cbc 253c
00000360: e827 a1bd 05ee 9c3d 1b2e e63d 8b80 09be
00000370: 0711 733d a306 31bd 4a08 543d 15b5 d03d
00000380: 9967 e2bd f07f a7bd d8da 9a3a 5020 6dba
00000390: 0977 bd3d 5b58 173e f72f fcbd 5995 ebbd
000003a0: b225 1a3b c13d 393d 6f64 2ebe 4be2 6f3d
000003b0: ad53 f2bc e2a7 a7bc 40a2 ddbd e6c5 943d
000003c0: 5c39 83bb ddc6 2dbe b89c ca3c ada0 043c
000003d0: e9c0 e63d 652b 023e 9e93 023e d641 eabc
000003e0: affb 9fbd 66d9 a4bd 2846 12be 7ee1 f53b
000003f0: 42a2 b2bd 60a8 e23d 8bb1 033e f497 e43d
0.17174129 -0.24724165 -0.055076405 0.2596283 -0.05090659 0.18756509 0.0022574516 0.30308658
0.04323664 0.3535753 -0.22116318 -0.023877665 -0.18543725 0.15335831 0.02660464 0.3456718
0.13962205 0.20682706 -0.27732316 -0.27609813 -0.31098107 0.0955096 -0.21231154 0.24077274
0.2781645 -0.34353548 0.25162575 -0.1204086 0.23194747 -0.20041966 0.13591324 -0.32233676
-0.09663099 0.17960139 -0.008110261 0.26976812 0.055004563 0.18718383 -0.26412773 -0.3071316
-0.20190845 0.2500892 -0.009935503 0.10470747 -0.13027468 -0.26319653 0.16199887 -0.14929079
0.25712997 -0.32482186 -0.20709774 0.088654935 0.07047004 0.05801139 -0.14757517 -0.033049945
-0.06323058 0.056647 0.06929094 -0.10190363 -0.11991161 -0.093417585 0.017437963 0.14054784
-0.039823182 -0.03530773 0.020446908 -0.10378835 -0.009583241 0.065619126 0.057131246 0.009878842
-0.13648792 -0.02569079 0.0947575 -0.13659184 0.031280447 0.022391884 0.13727161 -0.07790545
-0.08878057 0.03692651 -0.08120721 -0.105665274 -0.1232222 -0.12745075 -0.061833452 -0.046827856
-0.030198244 0.07517658 0.07953374 -0.03815266 -0.11497925 0.07174245 -0.0794541 0.08133937
0.07689825 0.121475466 -0.13939524 -0.065063484 0.078094386 -0.02431159 0.112291455 0.02601442
0.11373227 0.12157011 -0.0011151837 0.09959678 -0.06875593 0.12258156 -0.014362067 0.045186963
0.02369358 0.23782213 -0.1327075 0.08610221 -0.0397155 0.005844066 0.016736655 -0.06983328
-0.028953591 -0.074492306 -0.12196967 0.08353902 0.04595626 0.0145463655 0.14006045 -0.06948042
0.0062360223 0.2343573 -0.067803346 0.06927541 0.06766669 -0.060315855 -0.32387993 0.07874842
0.096327424 0.03684655 -0.021728327 -0.208824 -0.15586203 -0.07495235 0.09411557 0.12950891
-0.091349356 0.019898668 0.24146208 -0.109181836 -0.05494797 -0.17094573 -0.06279047 -0.07238576
0.17234707 0.019634517 0.13008498 -0.05462592 0.112650335 0.023064882 0.0011870313 0.106196836
-0.036038253 -0.13350964 0.16052194 0.080626324 0.11183371 -0.08069456 -0.12575914 0.112282544
0.08291245 0.008289054 0.17993565 -0.047874797 -0.0955881 0.092307135 0.01609236 -0.023561247
-0.057803012 0.003293056 0.06845807 0.22585545 -0.024530021 -0.10005013 -0.115799904 -0.047827903
-0.24131134 -0.06862282 -0.12591569 0.0565903 -0.106848314 -0.040338267 -0.058416504 -0.115856856
-0.023032695 0.09773106 -0.03937944 -0.07330979 0.028079327 0.03789133 0.054137353 0.13284281
-0.002418888 0.043224897 -0.04845326 -0.10668439 0.10932484 0.059380684 -0.11942796 0.057229754
-0.017875163 0.12649088 0.036009155 0.10606961 0.10096918 -0.11874586 -0.012770968 0.010115694
-0.0786894 0.07662586 0.11239263 -0.13427942 0.05934241 -0.04321922 0.051765718 0.10190789
-0.11054916 -0.08178699 0.0011814488 -0.00090456475 0.0925122 0.14779799 -0.12313836 -0.11503095
0.0023521003 0.04522491 -0.170305 0.05856542 -0.029580915 -0.020465795 -0.10821962 0.07264309
-0.0040046405 -0.16970392 0.024732932 0.008094949 0.112672634 0.12711866 0.12751624 -0.028595846
-0.07811677 -0.08049278 -0.14284575 0.0075036874 -0.087223545 0.11067271 0.12860696 0.11161795

lstm.bias_ih_l1 f4 [200]
00000000: dc97 6a3e 9efb 323d a0f3 163e 5009 1fbd
00000010: 47fd 463d 23d1 44bd 48c8 fc3d 0fda 25bd
00000020: df3c c4bc 6590 79bc 6d11 00be 3b5e 2e3c
00000030: 5add 7e3d 5dba 9ebd 72bf 893d 7952 ff3d
00000040: 35f6 763c 22bd 12bd 75ba ed3d f882 8ebd
00000050: afe5 52bd 992b 053d 5631 cbbc e088 8ebd
00000060: 3e2f 4dbd 822d ddbd c697 ed3d d6a5 73bd
00000070: fe91 063d 8311 8b3d 5288 bbbd 74fb 093e
00000080: b641 003e 2aff b93c 3b13 193f 30f5 f83d
00000090: 1db7 013e b66a 8d3d e977 f1bc f42e 0b3c
000000a0: f2e0 933e c1d9 a63d 6bef cabd 6d9b 5dbd
000000b0: 96b7 9ebd 72ca 69bc f32d c33d 2780 33bd
000000c0: 5399 233e 85de 36bd d43b 2d3d 2940 47bd
000000d0: 2c0d 943d 34ef c73c 42d9 d5bd fade 9ebd
000000e0: f2a5 1cbd d183 cdbb 6fdf 4c3c b7a6 3f3c
000000f0: a432 0bbe 7e92 26be 28e7 22be d61f a7bd
00000100: a809 12be 7dca 173c 1a55 5f3d 0150 9dbd
00000110: 1bbe da3d 2d61 323a 76b3 0cbe 569a 4e3d
00000120: c3e7 bebd 1172 4abb 192b 23bd 13ad cbbd
00000130: 8b17 a73d c59a 80bc e8f7 92bd 2611 42be
00000140: 93bf 863c b30c 8d3d d1b8 95bd c5aa 0abe
00000150: dbf8 61be e257 16bc a0db 5dbd fcb0 1d3d
00000160: 4975 17be ea3f a6bd ca23 fabd 1070 c7bd
00000170: 0ff1 943c 5ad4 e93c f2e8 3a3c 80db d93d
00000180: 06a6 0d3d e0a4 8c3d 6e39 36bd 9f23 07be
00000190: cb7b 9cbd b342 30bd 47c1 a23d 77d7 003e
000001a0: 976c 50bd a0b1 363c d563 80bd da80 223e
000001b0: 583a 20bd b328 be3b c3a7 15be 6386 e6bd
000001c0: 23ba d43d 68be 893d 7df7 91bd 0573 b03d
000001d0: 064b 53bd c9fe 81bd e7b6 8ebd d595 963c
000001e0: c439 68bc 6015 a53d 9e2b bcbd 35d7 0cbc
000001f0: 181f 183e f454 8fbd b8d6 853d e04b 88bb
00000200: 2a72 bdbb b4dc 03be 6527 babd 53be cabd
00000210: bb39 ea3c a5d3 cfbc da01 ebbd 8612 093e
00000220: c096 dbbd 7ab3 fbbc 5895 cfb7 3a3c 21bc
00000230: e2f2 893b d589 19bd 25c7 91bc 15ad a73d
00000240: c967 f2bd 2b34 03be 52b4 073e 8bd6 90bd
00000250: a9a3 ab3d c176 0d3d f637 923e 2d71 01be
00000260: 2668 d63c ffb1 d13c cb31 dbbd 7fed ed3c
00000270: 6be0 d53d b599 e0bd 2813 eebb 3761 6e3d
00000280: c16f 0d3e cb55 623d 7ce4 9bbd d33d 1a3e
00000290: 36c4 bd3c 7cdc ab3d 10d3 d3bd e29e 123e
000002a0: bbba dfbd ec17 7bbc 80fa d8bc b44d a73d
000002b0: a885 14bd 59bb 8bbd 12d6 c43d 78c5 5f3d
000002c0: 53b5 803d d6d3 ac3d d12e ce3d 71b4 593d
000002d0: 566b 24be 23e1 ba3b 45d6 f7bd c2ac a03d
000002e0: e07e 263f 0399 113d bc93 01be aecf 7abd
000002f0: 38b0 663c 9676 84bd b9f1 b53e 3712 083e
00000300: 8d05 d93d 6a46 71bd 8a4f 043e d34f 53bd
00000310: 1f2e 39bd 57f4 963c bccf 123e 6c16 56bd
0.22909492 0.043696992 0.14741373 -0.03882724 0.048581388 -0.04805101 0.12342888 -0.04049116
-0.023954807 -0.01523218 -0.12506647 0.0106425835 0.062222816 -0.0775039 0.067259684 0.12466902
0.015073349 -0.035824902 0.116078295 -0.06958574 -0.051488575 0.03251228 -0.024803799 -0.069597006
-0.05009388 -0.107996956 0.11601214 -0.059484325 0.032854073 0.067904495 -0.091568604 0.13474828
0.12525067 0.02270468 0.5979497 0.12156141 0.12667508 0.06905119 -0.029476123 0.008495081
0.28882557 0.08147002 -0.099089466 -0.054103304 -0.0774986 -0.014269458 0.095302485 -0.043823387
0.15976457 -0.044645805 0.042293385 -0.048645172 0.07229075 0.024406053 -0.10441829 -0.07757373
-0.038244195 -0.0062718173 0.012504443 0.011697463 -0.13593537 -0.1626682 -0.15908492 -0.08160369
-0.14261496 0.009264586 0.05452452 -0.07681275 0.10680791 0.00068046415 -0.13740334 0.050440155
-0.09321549 -0.0030890743 -0.039836023 -0.09945121 0.08158787 -0.0156988 -0.071761906 -0.18951854
0.016448772 0.06887188 -0.073106416 -0.13541706 -0.22067587 -0.009176226 -0.05416453 0.038498864
-0.14790834 -0.081176594 -0.122138575 -0.09738171 0.018181352 0.02854364 0.011408078 0.106375694
0.03458216 0.06867385 -0.044488363 -0.13197182 -0.07640799 -0.04303236 0.07947021 0.12582193
-0.05088481 0.011150748 -0.062690414 0.15869465 -0.03911814 0.0058031916 -0.14614777 -0.11256101
0.10387065 0.0672577 -0.07127283 0.08615688 -0.05158522 -0.063474245 -0.069684796 0.018381992
-0.014173929 0.080607176 -0.09188007 -0.008596231 0.14855611 -0.069986254 0.06535095 -0.0041594356
-0.0057814317 -0.1287716 -0.09089545 -0.09899583 0.028591981 -0.025369475 -0.114749625 0.13385972
-0.10722113 -0.03072523 -2.4745867e-05 -0.009841019 0.004209862 -0.037484962 -0.017795155 0.0818731
-0.11836202 -0.12812869 0.1325238 -0.07072171 0.08380825 0.03453708 0.2855832 -0.1264083
0.026172709 0.02559757 -0.10702857 0.029043911 0.10443195 -0.10966817 -0.007265467 0.05819818
0.13812162 0.0552576 -0.07611939 0.15062647 0.02316485 0.083916634 -0.10342991 0.14318421
-0.10924288 -0.015325528 -0.026486635 0.081691176 -0.036260277 -0.06822843 0.09611143 0.05463168
0.06284585 0.08438842 0.10067523 0.053150598 -0.1605657 0.005703108 -0.121014155 0.07845451
0.65037346 0.035546314 -0.12654012 -0.061233215 0.0140801 -0.06467931 0.35535982 0.13288198
0.10596762 -0.058905043 0.12920967 -0.0515898 -0.04521 0.018427057 0.14337057 -0.052267477

lstm.bias_hh_l1 f4 [200]
00000000: bd64 243e bf74 973d c050 0d3d 99e2 803d
00000010: 8994 41bc a32e 7fbd 8fd4 8d3c df07 a8bc
00000020: 8544 c8bd 8911 113c a9d4 15bd c3f1 383d
00000030: ab7e 17bd df52 d63d e0eb aa3d 0fd3 6a3d
00000040: f422 253e 17a0 793d 3928 2d3d f1c5 eabd
00000050: f3c9 0dbd 65e6 8cbc c87c c0bd 04a5 233d
00000060: df08 d83c 28d6 b73d 79a9 a9bc 59ae 48bc
00000070: ce9d 693d 13e2 a13d d9ad 1d3d 05fa 23bd
00000080: db5a a73d ff81 4fbd 6ea5 023f 5652 d93d
00000090: f38b 183d 6ddf 2dbd d907 6ebd 6d03 5d3d
000000a0: 9934 553e f5b9 303e 97ef cb3d b870 d1bc
000000b0: 1238 903d f495 9a3c 7c00 2e3d cc5e d03c
000000c0: 6772 c23d a0c6 103e f656 6bbe aea3 e03c
000000d0: 6730 89bd 5ba9 663c 1d52 4dbc e7fb aabc
000000e0: 636a 48be ac19 e7bc a9d0 07be e10b 12be
000000f0: 1f9f bf3d 4e3f d5bd aa39 1c3d 5a93 babd
00000100: b6b9 a9bd cba4 f43c 9329 0dbe 4b9e f43d
00000110: 6100 11be 8d07 1c3d 7ec8 d7bd a039 473d
00000120: 3d4b ae3d fab0 c7bd 6f97 b0bd 737b dbbc
00000130: 0570 b13d 6b19 d3bd db32 503c cbd6 f33c
00000140: 8efa aa3d bd0c 0cbb 7ac0 003e 080e cbbd
00000150: 01ee acbe a811 793c 08b0 6fbd f978 903d
00000160: 765a 9b3d 7973 a0bc a55a 40be 406b da3d
00000170: 9610 13bd 5136 0dbe 4bf6 c5bd d519 05be
00000180: e2ba 63bd c486 b4bb e163 a2bd a4fd f53d
00000190: 81e3 d03d fffb 81bd 5746 103d 9ced a5bd
000001a0: fb72 34bc 742c f4bb f5bb 86bd 8be0 c5bc
000001b0: 38bc 1ebd 4f36 54bc 01f2 6d3d 3d8f 12ba
000001c0: eab4 c3bc 8e20 ed3d fdfb d2bd 5cec 05bc
000001d0: 6223 3f3d 6b40 183e b396 b23c 9136 acbd
000001e0: 4151 733d f07c 773c 066e 04be 0cc4 6f3d
000001f0: 2583 8dbc 20e7 15be 571f 70bd f26c aa3d
00000200: 1b93 da3d f07e 8b3d eba3 7c3d 3bea ccbd
00000210: 8409 d1bd c4a8 473b 34ff d63d 4ad9 d13d
00000220: 1e4c ca3d db10 923d f5e8 613c 3987 803d
00000230: 88db 6bbb 8f13 893d 0c07 53bd 58d9 51bc
00000240: ad78 c8bc 9ba4 dfbd 3345 b53d 7e80 ffbd
00000250: 1b23 b53d 755a 4ebd ad3f 433e e2a3 d43c
00000260: b860 a93c cab4 033e d1ba b3bd a33c e33d
00000270: 33cf e13d 6818 2b3c 02f1 823c 131b 43bd
00000280: b12e b0bd 586b febc 9635 fb3d 82be bb3d
00000290: e31b 213e 1788 5c3c 2812 ba3d 6589 843d
000002a0: 1548 f2bd 5300 023e 6110 9fbd fc65 5ebc
000002b0: 2427 06be 7129 2abd dc06 91bc e181 9d3d
000002c0: 2c39 453d ac99 373e 7444 e3bc 70cf cdbc
000002d0: a0bd a4bd 2f2e 5f3d 03db b7bd c36d 063e
000002e0: 2368 243f fe88 8b3c f5fd e3bd 335a 813c
000002f0: e9ba 28be e8dd 88bd 866f 9a3e 0e09 1dbd
00000300: 390f da3d d5fd a03d eee0 063e 05c5 39bd
00000310: 6f18 07be bb45 ecbd 2fe2 4b3c 78c3 b8bd
0.16054054 0.073953144 0.034500837 0.0629322 -0.011815199 -0.062300336 0.01731327 -0.020511566
-0.09778694 0.008854278 -0.03657976 0.045152437 -0.036986034 0.10465025 0.08345771 0.057330187
0.16126615 0.06094369 0.042274687 -0.114635356 -0.034616422 -0.017199704 -0.093988 0.039952293
0.026371418 0.08976394 -0.020710694 -0.012248599 0.05703526 0.07904448 0.038495872 -0.04003336
0.08171626 -0.050661083 0.51033676 0.106114075 0.03724284 -0.042449404 -0.058112953 0.053958345
0.20820846 0.17258437 0.099578075 -0.025566444 0.070419446 0.018870331 0.04248093 0.025435828
0.09494477 0.1413827 -0.22982392 0.027421799 -0.06698685 0.014078463 -0.012531784 -0.02087207
-0.19571833 -0.028210483 -0.13263191 -0.14262344 0.09356522 -0.10412465 0.03814093 -0.09110136
-0.08287375 0.029863736 -0.1378539 0.119442545 -0.14160301 0.03809314 -0.10536288 0.04863894
0.08510444 -0.097505525 -0.08622634 -0.026792264 0.08663944 -0.103075825 0.012707437 0.029765507
0.08348571 -0.0021369897 0.12573424 -0.099147856 -0.33775333 0.0152019635 -0.058517486 0.07054324
0.075856134 -0.019586312 -0.18784578 0.106649876 -0.03590449 -0.13790251 -0.09666117 -0.12998135
-0.055598147 -0.0055092294 -0.07929207 0.12011269 0.10199643 -0.063468926 0.03522333 -0.08101961
-0.011013742 -0.0074515883 -0.06578819 -0.024154922 -0.03875372 -0.012952401 0.05809212 -0.0005590802
-0.023889977 0.11578475 -0.10301969 -0.008174028 0.046664603 0.14868324 0.021800375 -0.08408845
0.05940366 0.015105471 -0.12932596 0.058536574 -0.017274449 -0.14638948 -0.058623638 0.08321561
0.106725894 0.06811321 0.06167976 -0.100056134 -0.10206893 0.0030465582 0.10497895 0.10246523
0.098777995 0.07132121 0.013788451 0.06275792 -0.0035989005 0.06693184 -0.051520392 -0.012808166
-0.024471605 -0.10920068 0.08851089 -0.1247568 0.088445865 -0.050379235 0.19067259 0.025957052
0.020676002 0.12861934 -0.08775867 0.1109555 0.11025848 0.010442831 0.015984062 -0.04763324
-0.08602656 -0.031057045 0.1226608 0.09167196 0.15733294 0.013460181 0.09085494 0.064715184
-0.11830155 0.12695436 -0.07766796 -0.01357412 -0.13100868 -0.041543428 -0.017703466 0.07690788
0.048150226 0.17929715 -0.027742602 -0.025123328 -0.080439806 0.054487403 -0.0897732 0.13127808
0.642214 0.017033096 -0.11132423 0.01579008 -0.1647755 -0.0668295 0.3016321 -0.038338713
0.10647435 0.078609146 0.13171741 -0.045353908 -0.13192914 -0.115367375 0.012444063 -0.09021658

fc.weight f4 [1, 50]
00000000: 69ac 143e 7cea e0bd ff03 f7bd efdf bd3d
00000010: 1c56 753d 79b8 4a3d 5b2b 923d 5a33 103e
00000020: 9646 d73d db13 023e bd76 87bd 032b 7e3d
00000030: 1998 87bd bddd 163e 4e10 533d df21 333e
00000040: 7d37 083e aa36 273e 65c2 15be 5323 efbc
00000050: d90a cdbd 8da9 8d3d c3fd c6bd 7de7 cc3d
00000060: 8553 d53d 021a bdbd 2ae1 653d a0e1 b7bd
00000070: c060 b73d de9a 35be 2cb9 af3d ea7d d4bd
00000080: 0925 1bbe 9e69 5f3d f0c7 993e f569 e13d
00000090: ef04 e73d 2620 f43d 6ae2 b83c 70dc ebbd
000000a0: 30ea 12be cc2b 0b3e 0df4 383d 8a8d f13d
000000b0: 42c1 f0bd 917b 86bd b0d2 a13d 3a33 50bd
000000c0: c5ae e93d ef75 c4bd
0.14518894 -0.10982224 -0.12061309 0.092712276 0.059896573 0.049492333 0.07137176 0.14082089
0.1051151 0.12702887 -0.066144444 0.062052738 -0.06620807 0.14733024 0.05152922 0.1749339
0.13302417 0.16329446 -0.14624937 -0.029191649 -0.10011835 0.06917105 -0.0971637 0.100050904
0.10416321 -0.09233476 0.056122936 -0.089785814 0.089540005 -0.17734858 0.085802406 -0.10375579
-0.15150847 0.054544084 0.30035353 0.11006538 0.11280238 0.11920194 0.0225689 -0.115166545
-0.14347148 0.13590926 0.04515462 0.117945746 -0.11755611 -0.06566537 0.079015136 -0.050830103
0.11410288 -0.095928065
